

**************  start new model : GoogLeNet ******************
Files already downloaded and verified
SGD (
Parameter Group 0
    dampening: 0
    lr: 0.01
    momentum: 0.9
    nesterov: False
    weight_decay: 0.0005
) GoogLeNet(
  (conv1): BasicConv2d(
    (conv): Sequential(
      (0): Conv2d(3, 64, kernel_size=(7, 7), stride=(1, 1), padding=(3, 3))
      (1): ReLU()
    )
  )
  (conv2): BasicConv2d(
    (conv): Sequential(
      (0): Conv2d(64, 64, kernel_size=(1, 1), stride=(1, 1))
      (1): ReLU()
    )
  )
  (conv3): BasicConv2d(
    (conv): Sequential(
      (0): Conv2d(64, 192, kernel_size=(5, 5), stride=(1, 1))
      (1): ReLU()
    )
  )
  (inception3a): Inception(
    (branch1): BasicConv2d(
      (conv): Sequential(
        (0): Conv2d(192, 64, kernel_size=(1, 1), stride=(1, 1))
        (1): ReLU()
      )
    )
    (branch2): Sequential(
      (0): BasicConv2d(
        (conv): Sequential(
          (0): Conv2d(192, 96, kernel_size=(1, 1), stride=(1, 1))
          (1): ReLU()
        )
      )
      (1): BasicConv2d(
        (conv): Sequential(
          (0): Conv2d(96, 128, kernel_size=(3, 3), stride=(1, 1), padding=(1, 1))
          (1): ReLU()
        )
      )
    )
    (branch3): Sequential(
      (0): BasicConv2d(
        (conv): Sequential(
          (0): Conv2d(192, 16, kernel_size=(1, 1), stride=(1, 1))
          (1): ReLU()
        )
      )
      (1): BasicConv2d(
        (conv): Sequential(
          (0): Conv2d(16, 32, kernel_size=(5, 5), stride=(1, 1), padding=(2, 2))
          (1): ReLU()
        )
      )
    )
    (branch4): Sequential(
      (0): MaxPool2d(kernel_size=3, stride=1, padding=1, dilation=1, ceil_mode=False)
      (1): BasicConv2d(
        (conv): Sequential(
          (0): Conv2d(192, 32, kernel_size=(1, 1), stride=(1, 1))
          (1): ReLU()
        )
      )
    )
  )
  (inception3b): Inception(
    (branch1): BasicConv2d(
      (conv): Sequential(
        (0): Conv2d(256, 128, kernel_size=(1, 1), stride=(1, 1))
        (1): ReLU()
      )
    )
    (branch2): Sequential(
      (0): BasicConv2d(
        (conv): Sequential(
          (0): Conv2d(256, 128, kernel_size=(1, 1), stride=(1, 1))
          (1): ReLU()
        )
      )
      (1): BasicConv2d(
        (conv): Sequential(
          (0): Conv2d(128, 192, kernel_size=(3, 3), stride=(1, 1), padding=(1, 1))
          (1): ReLU()
        )
      )
    )
    (branch3): Sequential(
      (0): BasicConv2d(
        (conv): Sequential(
          (0): Conv2d(256, 32, kernel_size=(1, 1), stride=(1, 1))
          (1): ReLU()
        )
      )
      (1): BasicConv2d(
        (conv): Sequential(
          (0): Conv2d(32, 96, kernel_size=(5, 5), stride=(1, 1), padding=(2, 2))
          (1): ReLU()
        )
      )
    )
    (branch4): Sequential(
      (0): MaxPool2d(kernel_size=3, stride=1, padding=1, dilation=1, ceil_mode=False)
      (1): BasicConv2d(
        (conv): Sequential(
          (0): Conv2d(256, 64, kernel_size=(1, 1), stride=(1, 1))
          (1): ReLU()
        )
      )
    )
  )
  (maxpool3): MaxPool2d(kernel_size=3, stride=2, padding=0, dilation=1, ceil_mode=True)
  (inception4a): Inception(
    (branch1): BasicConv2d(
      (conv): Sequential(
        (0): Conv2d(480, 192, kernel_size=(1, 1), stride=(1, 1))
        (1): ReLU()
      )
    )
    (branch2): Sequential(
      (0): BasicConv2d(
        (conv): Sequential(
          (0): Conv2d(480, 96, kernel_size=(1, 1), stride=(1, 1))
          (1): ReLU()
        )
      )
      (1): BasicConv2d(
        (conv): Sequential(
          (0): Conv2d(96, 208, kernel_size=(3, 3), stride=(1, 1), padding=(1, 1))
          (1): ReLU()
        )
      )
    )
    (branch3): Sequential(
      (0): BasicConv2d(
        (conv): Sequential(
          (0): Conv2d(480, 16, kernel_size=(1, 1), stride=(1, 1))
          (1): ReLU()
        )
      )
      (1): BasicConv2d(
        (conv): Sequential(
          (0): Conv2d(16, 48, kernel_size=(5, 5), stride=(1, 1), padding=(2, 2))
          (1): ReLU()
        )
      )
    )
    (branch4): Sequential(
      (0): MaxPool2d(kernel_size=3, stride=1, padding=1, dilation=1, ceil_mode=False)
      (1): BasicConv2d(
        (conv): Sequential(
          (0): Conv2d(480, 64, kernel_size=(1, 1), stride=(1, 1))
          (1): ReLU()
        )
      )
    )
  )
  (inception4b): Inception(
    (branch1): BasicConv2d(
      (conv): Sequential(
        (0): Conv2d(512, 160, kernel_size=(1, 1), stride=(1, 1))
        (1): ReLU()
      )
    )
    (branch2): Sequential(
      (0): BasicConv2d(
        (conv): Sequential(
          (0): Conv2d(512, 112, kernel_size=(1, 1), stride=(1, 1))
          (1): ReLU()
        )
      )
      (1): BasicConv2d(
        (conv): Sequential(
          (0): Conv2d(112, 224, kernel_size=(3, 3), stride=(1, 1), padding=(1, 1))
          (1): ReLU()
        )
      )
    )
    (branch3): Sequential(
      (0): BasicConv2d(
        (conv): Sequential(
          (0): Conv2d(512, 24, kernel_size=(1, 1), stride=(1, 1))
          (1): ReLU()
        )
      )
      (1): BasicConv2d(
        (conv): Sequential(
          (0): Conv2d(24, 64, kernel_size=(5, 5), stride=(1, 1), padding=(2, 2))
          (1): ReLU()
        )
      )
    )
    (branch4): Sequential(
      (0): MaxPool2d(kernel_size=3, stride=1, padding=1, dilation=1, ceil_mode=False)
      (1): BasicConv2d(
        (conv): Sequential(
          (0): Conv2d(512, 64, kernel_size=(1, 1), stride=(1, 1))
          (1): ReLU()
        )
      )
    )
  )
  (inception4c): Inception(
    (branch1): BasicConv2d(
      (conv): Sequential(
        (0): Conv2d(512, 128, kernel_size=(1, 1), stride=(1, 1))
        (1): ReLU()
      )
    )
    (branch2): Sequential(
      (0): BasicConv2d(
        (conv): Sequential(
          (0): Conv2d(512, 128, kernel_size=(1, 1), stride=(1, 1))
          (1): ReLU()
        )
      )
      (1): BasicConv2d(
        (conv): Sequential(
          (0): Conv2d(128, 256, kernel_size=(3, 3), stride=(1, 1), padding=(1, 1))
          (1): ReLU()
        )
      )
    )
    (branch3): Sequential(
      (0): BasicConv2d(
        (conv): Sequential(
          (0): Conv2d(512, 24, kernel_size=(1, 1), stride=(1, 1))
          (1): ReLU()
        )
      )
      (1): BasicConv2d(
        (conv): Sequential(
          (0): Conv2d(24, 64, kernel_size=(5, 5), stride=(1, 1), padding=(2, 2))
          (1): ReLU()
        )
      )
    )
    (branch4): Sequential(
      (0): MaxPool2d(kernel_size=3, stride=1, padding=1, dilation=1, ceil_mode=False)
      (1): BasicConv2d(
        (conv): Sequential(
          (0): Conv2d(512, 64, kernel_size=(1, 1), stride=(1, 1))
          (1): ReLU()
        )
      )
    )
  )
  (inception4d): Inception(
    (branch1): BasicConv2d(
      (conv): Sequential(
        (0): Conv2d(512, 112, kernel_size=(1, 1), stride=(1, 1))
        (1): ReLU()
      )
    )
    (branch2): Sequential(
      (0): BasicConv2d(
        (conv): Sequential(
          (0): Conv2d(512, 144, kernel_size=(1, 1), stride=(1, 1))
          (1): ReLU()
        )
      )
      (1): BasicConv2d(
        (conv): Sequential(
          (0): Conv2d(144, 288, kernel_size=(3, 3), stride=(1, 1), padding=(1, 1))
          (1): ReLU()
        )
      )
    )
    (branch3): Sequential(
      (0): BasicConv2d(
        (conv): Sequential(
          (0): Conv2d(512, 32, kernel_size=(1, 1), stride=(1, 1))
          (1): ReLU()
        )
      )
      (1): BasicConv2d(
        (conv): Sequential(
          (0): Conv2d(32, 64, kernel_size=(5, 5), stride=(1, 1), padding=(2, 2))
          (1): ReLU()
        )
      )
    )
    (branch4): Sequential(
      (0): MaxPool2d(kernel_size=3, stride=1, padding=1, dilation=1, ceil_mode=False)
      (1): BasicConv2d(
        (conv): Sequential(
          (0): Conv2d(512, 64, kernel_size=(1, 1), stride=(1, 1))
          (1): ReLU()
        )
      )
    )
  )
  (inception4e): Inception(
    (branch1): BasicConv2d(
      (conv): Sequential(
        (0): Conv2d(528, 256, kernel_size=(1, 1), stride=(1, 1))
        (1): ReLU()
      )
    )
    (branch2): Sequential(
      (0): BasicConv2d(
        (conv): Sequential(
          (0): Conv2d(528, 160, kernel_size=(1, 1), stride=(1, 1))
          (1): ReLU()
        )
      )
      (1): BasicConv2d(
        (conv): Sequential(
          (0): Conv2d(160, 320, kernel_size=(3, 3), stride=(1, 1), padding=(1, 1))
          (1): ReLU()
        )
      )
    )
    (branch3): Sequential(
      (0): BasicConv2d(
        (conv): Sequential(
          (0): Conv2d(528, 32, kernel_size=(1, 1), stride=(1, 1))
          (1): ReLU()
        )
      )
      (1): BasicConv2d(
        (conv): Sequential(
          (0): Conv2d(32, 128, kernel_size=(5, 5), stride=(1, 1), padding=(2, 2))
          (1): ReLU()
        )
      )
    )
    (branch4): Sequential(
      (0): MaxPool2d(kernel_size=3, stride=1, padding=1, dilation=1, ceil_mode=False)
      (1): BasicConv2d(
        (conv): Sequential(
          (0): Conv2d(528, 128, kernel_size=(1, 1), stride=(1, 1))
          (1): ReLU()
        )
      )
    )
  )
  (maxpool4): MaxPool2d(kernel_size=2, stride=2, padding=0, dilation=1, ceil_mode=True)
  (inception5a): Inception(
    (branch1): BasicConv2d(
      (conv): Sequential(
        (0): Conv2d(832, 256, kernel_size=(1, 1), stride=(1, 1))
        (1): ReLU()
      )
    )
    (branch2): Sequential(
      (0): BasicConv2d(
        (conv): Sequential(
          (0): Conv2d(832, 160, kernel_size=(1, 1), stride=(1, 1))
          (1): ReLU()
        )
      )
      (1): BasicConv2d(
        (conv): Sequential(
          (0): Conv2d(160, 320, kernel_size=(3, 3), stride=(1, 1), padding=(1, 1))
          (1): ReLU()
        )
      )
    )
    (branch3): Sequential(
      (0): BasicConv2d(
        (conv): Sequential(
          (0): Conv2d(832, 32, kernel_size=(1, 1), stride=(1, 1))
          (1): ReLU()
        )
      )
      (1): BasicConv2d(
        (conv): Sequential(
          (0): Conv2d(32, 128, kernel_size=(5, 5), stride=(1, 1), padding=(2, 2))
          (1): ReLU()
        )
      )
    )
    (branch4): Sequential(
      (0): MaxPool2d(kernel_size=3, stride=1, padding=1, dilation=1, ceil_mode=False)
      (1): BasicConv2d(
        (conv): Sequential(
          (0): Conv2d(832, 128, kernel_size=(1, 1), stride=(1, 1))
          (1): ReLU()
        )
      )
    )
  )
  (inception5b): Inception(
    (branch1): BasicConv2d(
      (conv): Sequential(
        (0): Conv2d(832, 384, kernel_size=(1, 1), stride=(1, 1))
        (1): ReLU()
      )
    )
    (branch2): Sequential(
      (0): BasicConv2d(
        (conv): Sequential(
          (0): Conv2d(832, 192, kernel_size=(1, 1), stride=(1, 1))
          (1): ReLU()
        )
      )
      (1): BasicConv2d(
        (conv): Sequential(
          (0): Conv2d(192, 384, kernel_size=(3, 3), stride=(1, 1), padding=(1, 1))
          (1): ReLU()
        )
      )
    )
    (branch3): Sequential(
      (0): BasicConv2d(
        (conv): Sequential(
          (0): Conv2d(832, 48, kernel_size=(1, 1), stride=(1, 1))
          (1): ReLU()
        )
      )
      (1): BasicConv2d(
        (conv): Sequential(
          (0): Conv2d(48, 128, kernel_size=(5, 5), stride=(1, 1), padding=(2, 2))
          (1): ReLU()
        )
      )
    )
    (branch4): Sequential(
      (0): MaxPool2d(kernel_size=3, stride=1, padding=1, dilation=1, ceil_mode=False)
      (1): BasicConv2d(
        (conv): Sequential(
          (0): Conv2d(832, 128, kernel_size=(1, 1), stride=(1, 1))
          (1): ReLU()
        )
      )
    )
  )
  (avgpool): AdaptiveAvgPool2d(output_size=(1, 1))
  (dropout): Dropout(p=0.4, inplace=False)
  (fc): Linear(in_features=1024, out_features=10, bias=True)
)
Epoch [1] Loss: 2.2961  Epoch time : 43.7489
[Test set] Average loss: 0.0092, Accuracy: 1815/10000 (18.15%)

Epoch [2] Loss: 2.0118  Epoch time : 42.6119
[Test set] Average loss: 0.0081, Accuracy: 2290/10000 (22.90%)

Epoch [3] Loss: 1.9231  Epoch time : 42.5678
[Test set] Average loss: 0.0077, Accuracy: 2632/10000 (26.32%)

Epoch [4] Loss: 1.8489  Epoch time : 42.6141
…
Epoch [99] Loss: 0.2386  Epoch time : 42.6263
[Test set] Average loss: 0.0027, Accuracy: 8234/10000 (82.34%)

Epoch [100] Loss: 0.2351  Epoch time : 42.6062
[Test set] Average loss: 0.0022, Accuracy: 8483/10000 (84.83%)

Time ellapsed in training is: 4524.156973361969
save dir : /home/tjrgh/Project/ML_albert_no/Result/GoogLeNet/19_9_57


**************  start new model : GoogLeNet_w_bn ******************
Files already downloaded and verified
SGD (
Parameter Group 0
    dampening: 0
    lr: 0.01
    momentum: 0.9
    nesterov: False
    weight_decay: 0.0005
) GoogLeNet(
  (conv1): BasicConv2d(
    (conv): Sequential(
      (0): Conv2d(3, 64, kernel_size=(7, 7), stride=(1, 1), padding=(3, 3))
      (1): BatchNorm2d(64, eps=1e-05, momentum=0.1, affine=True, track_running_stats=True)
      (2): ReLU()
    )
  )
  (conv2): BasicConv2d(
    (conv): Sequential(
      (0): Conv2d(64, 64, kernel_size=(1, 1), stride=(1, 1))
      (1): BatchNorm2d(64, eps=1e-05, momentum=0.1, affine=True, track_running_stats=True)
      (2): ReLU()
    )
  )
  (conv3): BasicConv2d(
    (conv): Sequential(
      (0): Conv2d(64, 192, kernel_size=(5, 5), stride=(1, 1))
      (1): BatchNorm2d(192, eps=1e-05, momentum=0.1, affine=True, track_running_stats=True)
      (2): ReLU()
    )
  )
  (inception3a): Inception(
    (branch1): BasicConv2d(
      (conv): Sequential(
        (0): Conv2d(192, 64, kernel_size=(1, 1), stride=(1, 1))
        (1): BatchNorm2d(64, eps=1e-05, momentum=0.1, affine=True, track_running_stats=True)
        (2): ReLU()
      )
    )
    (branch2): Sequential(
      (0): BasicConv2d(
        (conv): Sequential(
          (0): Conv2d(192, 96, kernel_size=(1, 1), stride=(1, 1))
          (1): BatchNorm2d(96, eps=1e-05, momentum=0.1, affine=True, track_running_stats=True)
          (2): ReLU()
        )
      )
      (1): BasicConv2d(
        (conv): Sequential(
          (0): Conv2d(96, 128, kernel_size=(3, 3), stride=(1, 1), padding=(1, 1))
          (1): BatchNorm2d(128, eps=1e-05, momentum=0.1, affine=True, track_running_stats=True)
          (2): ReLU()
        )
      )
    )
    (branch3): Sequential(
      (0): BasicConv2d(
        (conv): Sequential(
          (0): Conv2d(192, 16, kernel_size=(1, 1), stride=(1, 1))
          (1): BatchNorm2d(16, eps=1e-05, momentum=0.1, affine=True, track_running_stats=True)
          (2): ReLU()
        )
      )
      (1): BasicConv2d(
        (conv): Sequential(
          (0): Conv2d(16, 32, kernel_size=(5, 5), stride=(1, 1), padding=(2, 2))
          (1): BatchNorm2d(32, eps=1e-05, momentum=0.1, affine=True, track_running_stats=True)
          (2): ReLU()
        )
      )
    )
    (branch4): Sequential(
      (0): MaxPool2d(kernel_size=3, stride=1, padding=1, dilation=1, ceil_mode=False)
      (1): BasicConv2d(
        (conv): Sequential(
          (0): Conv2d(192, 32, kernel_size=(1, 1), stride=(1, 1))
          (1): BatchNorm2d(32, eps=1e-05, momentum=0.1, affine=True, track_running_stats=True)
          (2): ReLU()
        )
      )
    )
  )
  (inception3b): Inception(
    (branch1): BasicConv2d(
      (conv): Sequential(
        (0): Conv2d(256, 128, kernel_size=(1, 1), stride=(1, 1))
        (1): BatchNorm2d(128, eps=1e-05, momentum=0.1, affine=True, track_running_stats=True)
        (2): ReLU()
      )
    )
    (branch2): Sequential(
      (0): BasicConv2d(
        (conv): Sequential(
          (0): Conv2d(256, 128, kernel_size=(1, 1), stride=(1, 1))
          (1): BatchNorm2d(128, eps=1e-05, momentum=0.1, affine=True, track_running_stats=True)
          (2): ReLU()
        )
      )
      (1): BasicConv2d(
        (conv): Sequential(
          (0): Conv2d(128, 192, kernel_size=(3, 3), stride=(1, 1), padding=(1, 1))
          (1): BatchNorm2d(192, eps=1e-05, momentum=0.1, affine=True, track_running_stats=True)
          (2): ReLU()
        )
      )
    )
    (branch3): Sequential(
      (0): BasicConv2d(
        (conv): Sequential(
          (0): Conv2d(256, 32, kernel_size=(1, 1), stride=(1, 1))
          (1): BatchNorm2d(32, eps=1e-05, momentum=0.1, affine=True, track_running_stats=True)
          (2): ReLU()
        )
      )
      (1): BasicConv2d(
        (conv): Sequential(
          (0): Conv2d(32, 96, kernel_size=(5, 5), stride=(1, 1), padding=(2, 2))
          (1): BatchNorm2d(96, eps=1e-05, momentum=0.1, affine=True, track_running_stats=True)
          (2): ReLU()
        )
      )
    )
    (branch4): Sequential(
      (0): MaxPool2d(kernel_size=3, stride=1, padding=1, dilation=1, ceil_mode=False)
      (1): BasicConv2d(
        (conv): Sequential(
          (0): Conv2d(256, 64, kernel_size=(1, 1), stride=(1, 1))
          (1): BatchNorm2d(64, eps=1e-05, momentum=0.1, affine=True, track_running_stats=True)
          (2): ReLU()
        )
      )
    )
  )
  (maxpool3): MaxPool2d(kernel_size=3, stride=2, padding=0, dilation=1, ceil_mode=True)
  (inception4a): Inception(
    (branch1): BasicConv2d(
      (conv): Sequential(
        (0): Conv2d(480, 192, kernel_size=(1, 1), stride=(1, 1))
        (1): BatchNorm2d(192, eps=1e-05, momentum=0.1, affine=True, track_running_stats=True)
        (2): ReLU()
      )
    )
    (branch2): Sequential(
      (0): BasicConv2d(
        (conv): Sequential(
          (0): Conv2d(480, 96, kernel_size=(1, 1), stride=(1, 1))
          (1): BatchNorm2d(96, eps=1e-05, momentum=0.1, affine=True, track_running_stats=True)
          (2): ReLU()
        )
      )
      (1): BasicConv2d(
        (conv): Sequential(
          (0): Conv2d(96, 208, kernel_size=(3, 3), stride=(1, 1), padding=(1, 1))
          (1): BatchNorm2d(208, eps=1e-05, momentum=0.1, affine=True, track_running_stats=True)
          (2): ReLU()
        )
      )
    )
    (branch3): Sequential(
      (0): BasicConv2d(
        (conv): Sequential(
          (0): Conv2d(480, 16, kernel_size=(1, 1), stride=(1, 1))
          (1): BatchNorm2d(16, eps=1e-05, momentum=0.1, affine=True, track_running_stats=True)
          (2): ReLU()
        )
      )
      (1): BasicConv2d(
        (conv): Sequential(
          (0): Conv2d(16, 48, kernel_size=(5, 5), stride=(1, 1), padding=(2, 2))
          (1): BatchNorm2d(48, eps=1e-05, momentum=0.1, affine=True, track_running_stats=True)
          (2): ReLU()
        )
      )
    )
    (branch4): Sequential(
      (0): MaxPool2d(kernel_size=3, stride=1, padding=1, dilation=1, ceil_mode=False)
      (1): BasicConv2d(
        (conv): Sequential(
          (0): Conv2d(480, 64, kernel_size=(1, 1), stride=(1, 1))
          (1): BatchNorm2d(64, eps=1e-05, momentum=0.1, affine=True, track_running_stats=True)
          (2): ReLU()
        )
      )
    )
  )
  (inception4b): Inception(
    (branch1): BasicConv2d(
      (conv): Sequential(
        (0): Conv2d(512, 160, kernel_size=(1, 1), stride=(1, 1))
        (1): BatchNorm2d(160, eps=1e-05, momentum=0.1, affine=True, track_running_stats=True)
        (2): ReLU()
      )
    )
    (branch2): Sequential(
      (0): BasicConv2d(
        (conv): Sequential(
          (0): Conv2d(512, 112, kernel_size=(1, 1), stride=(1, 1))
          (1): BatchNorm2d(112, eps=1e-05, momentum=0.1, affine=True, track_running_stats=True)
          (2): ReLU()
        )
      )
      (1): BasicConv2d(
        (conv): Sequential(
          (0): Conv2d(112, 224, kernel_size=(3, 3), stride=(1, 1), padding=(1, 1))
          (1): BatchNorm2d(224, eps=1e-05, momentum=0.1, affine=True, track_running_stats=True)
          (2): ReLU()
        )
      )
    )
    (branch3): Sequential(
      (0): BasicConv2d(
        (conv): Sequential(
          (0): Conv2d(512, 24, kernel_size=(1, 1), stride=(1, 1))
          (1): BatchNorm2d(24, eps=1e-05, momentum=0.1, affine=True, track_running_stats=True)
          (2): ReLU()
        )
      )
      (1): BasicConv2d(
        (conv): Sequential(
          (0): Conv2d(24, 64, kernel_size=(5, 5), stride=(1, 1), padding=(2, 2))
          (1): BatchNorm2d(64, eps=1e-05, momentum=0.1, affine=True, track_running_stats=True)
          (2): ReLU()
        )
      )
    )
    (branch4): Sequential(
      (0): MaxPool2d(kernel_size=3, stride=1, padding=1, dilation=1, ceil_mode=False)
      (1): BasicConv2d(
        (conv): Sequential(
          (0): Conv2d(512, 64, kernel_size=(1, 1), stride=(1, 1))
          (1): BatchNorm2d(64, eps=1e-05, momentum=0.1, affine=True, track_running_stats=True)
          (2): ReLU()
        )
      )
    )
  )
  (inception4c): Inception(
    (branch1): BasicConv2d(
      (conv): Sequential(
        (0): Conv2d(512, 128, kernel_size=(1, 1), stride=(1, 1))
        (1): BatchNorm2d(128, eps=1e-05, momentum=0.1, affine=True, track_running_stats=True)
        (2): ReLU()
      )
    )
    (branch2): Sequential(
      (0): BasicConv2d(
        (conv): Sequential(
          (0): Conv2d(512, 128, kernel_size=(1, 1), stride=(1, 1))
          (1): BatchNorm2d(128, eps=1e-05, momentum=0.1, affine=True, track_running_stats=True)
          (2): ReLU()
        )
      )
      (1): BasicConv2d(
        (conv): Sequential(
          (0): Conv2d(128, 256, kernel_size=(3, 3), stride=(1, 1), padding=(1, 1))
          (1): BatchNorm2d(256, eps=1e-05, momentum=0.1, affine=True, track_running_stats=True)
          (2): ReLU()
        )
      )
    )
    (branch3): Sequential(
      (0): BasicConv2d(
        (conv): Sequential(
          (0): Conv2d(512, 24, kernel_size=(1, 1), stride=(1, 1))
          (1): BatchNorm2d(24, eps=1e-05, momentum=0.1, affine=True, track_running_stats=True)
          (2): ReLU()
        )
      )
      (1): BasicConv2d(
        (conv): Sequential(
          (0): Conv2d(24, 64, kernel_size=(5, 5), stride=(1, 1), padding=(2, 2))
          (1): BatchNorm2d(64, eps=1e-05, momentum=0.1, affine=True, track_running_stats=True)
          (2): ReLU()
        )
      )
    )
    (branch4): Sequential(
      (0): MaxPool2d(kernel_size=3, stride=1, padding=1, dilation=1, ceil_mode=False)
      (1): BasicConv2d(
        (conv): Sequential(
          (0): Conv2d(512, 64, kernel_size=(1, 1), stride=(1, 1))
          (1): BatchNorm2d(64, eps=1e-05, momentum=0.1, affine=True, track_running_stats=True)
          (2): ReLU()
        )
      )
    )
  )
  (inception4d): Inception(
    (branch1): BasicConv2d(
      (conv): Sequential(
        (0): Conv2d(512, 112, kernel_size=(1, 1), stride=(1, 1))
        (1): BatchNorm2d(112, eps=1e-05, momentum=0.1, affine=True, track_running_stats=True)
        (2): ReLU()
      )
    )
    (branch2): Sequential(
      (0): BasicConv2d(
        (conv): Sequential(
          (0): Conv2d(512, 144, kernel_size=(1, 1), stride=(1, 1))
          (1): BatchNorm2d(144, eps=1e-05, momentum=0.1, affine=True, track_running_stats=True)
          (2): ReLU()
        )
      )
      (1): BasicConv2d(
        (conv): Sequential(
          (0): Conv2d(144, 288, kernel_size=(3, 3), stride=(1, 1), padding=(1, 1))
          (1): BatchNorm2d(288, eps=1e-05, momentum=0.1, affine=True, track_running_stats=True)
          (2): ReLU()
        )
      )
    )
    (branch3): Sequential(
      (0): BasicConv2d(
        (conv): Sequential(
          (0): Conv2d(512, 32, kernel_size=(1, 1), stride=(1, 1))
          (1): BatchNorm2d(32, eps=1e-05, momentum=0.1, affine=True, track_running_stats=True)
          (2): ReLU()
        )
      )
      (1): BasicConv2d(
        (conv): Sequential(
          (0): Conv2d(32, 64, kernel_size=(5, 5), stride=(1, 1), padding=(2, 2))
          (1): BatchNorm2d(64, eps=1e-05, momentum=0.1, affine=True, track_running_stats=True)
          (2): ReLU()
        )
      )
    )
    (branch4): Sequential(
      (0): MaxPool2d(kernel_size=3, stride=1, padding=1, dilation=1, ceil_mode=False)
      (1): BasicConv2d(
        (conv): Sequential(
          (0): Conv2d(512, 64, kernel_size=(1, 1), stride=(1, 1))
          (1): BatchNorm2d(64, eps=1e-05, momentum=0.1, affine=True, track_running_stats=True)
          (2): ReLU()
        )
      )
    )
  )
  (inception4e): Inception(
    (branch1): BasicConv2d(
      (conv): Sequential(
        (0): Conv2d(528, 256, kernel_size=(1, 1), stride=(1, 1))
        (1): BatchNorm2d(256, eps=1e-05, momentum=0.1, affine=True, track_running_stats=True)
        (2): ReLU()
      )
    )
    (branch2): Sequential(
      (0): BasicConv2d(
        (conv): Sequential(
          (0): Conv2d(528, 160, kernel_size=(1, 1), stride=(1, 1))
          (1): BatchNorm2d(160, eps=1e-05, momentum=0.1, affine=True, track_running_stats=True)
          (2): ReLU()
        )
      )
      (1): BasicConv2d(
        (conv): Sequential(
          (0): Conv2d(160, 320, kernel_size=(3, 3), stride=(1, 1), padding=(1, 1))
          (1): BatchNorm2d(320, eps=1e-05, momentum=0.1, affine=True, track_running_stats=True)
          (2): ReLU()
        )
      )
    )
    (branch3): Sequential(
      (0): BasicConv2d(
        (conv): Sequential(
          (0): Conv2d(528, 32, kernel_size=(1, 1), stride=(1, 1))
          (1): BatchNorm2d(32, eps=1e-05, momentum=0.1, affine=True, track_running_stats=True)
          (2): ReLU()
        )
      )
      (1): BasicConv2d(
        (conv): Sequential(
          (0): Conv2d(32, 128, kernel_size=(5, 5), stride=(1, 1), padding=(2, 2))
          (1): BatchNorm2d(128, eps=1e-05, momentum=0.1, affine=True, track_running_stats=True)
          (2): ReLU()
        )
      )
    )
    (branch4): Sequential(
      (0): MaxPool2d(kernel_size=3, stride=1, padding=1, dilation=1, ceil_mode=False)
      (1): BasicConv2d(
        (conv): Sequential(
          (0): Conv2d(528, 128, kernel_size=(1, 1), stride=(1, 1))
          (1): BatchNorm2d(128, eps=1e-05, momentum=0.1, affine=True, track_running_stats=True)
          (2): ReLU()
        )
      )
    )
  )
  (maxpool4): MaxPool2d(kernel_size=2, stride=2, padding=0, dilation=1, ceil_mode=True)
  (inception5a): Inception(
    (branch1): BasicConv2d(
      (conv): Sequential(
        (0): Conv2d(832, 256, kernel_size=(1, 1), stride=(1, 1))
        (1): BatchNorm2d(256, eps=1e-05, momentum=0.1, affine=True, track_running_stats=True)
        (2): ReLU()
      )
    )
    (branch2): Sequential(
      (0): BasicConv2d(
        (conv): Sequential(
          (0): Conv2d(832, 160, kernel_size=(1, 1), stride=(1, 1))
          (1): BatchNorm2d(160, eps=1e-05, momentum=0.1, affine=True, track_running_stats=True)
          (2): ReLU()
        )
      )
      (1): BasicConv2d(
        (conv): Sequential(
          (0): Conv2d(160, 320, kernel_size=(3, 3), stride=(1, 1), padding=(1, 1))
          (1): BatchNorm2d(320, eps=1e-05, momentum=0.1, affine=True, track_running_stats=True)
          (2): ReLU()
        )
      )
    )
    (branch3): Sequential(
      (0): BasicConv2d(
        (conv): Sequential(
          (0): Conv2d(832, 32, kernel_size=(1, 1), stride=(1, 1))
          (1): BatchNorm2d(32, eps=1e-05, momentum=0.1, affine=True, track_running_stats=True)
          (2): ReLU()
        )
      )
      (1): BasicConv2d(
        (conv): Sequential(
          (0): Conv2d(32, 128, kernel_size=(5, 5), stride=(1, 1), padding=(2, 2))
          (1): BatchNorm2d(128, eps=1e-05, momentum=0.1, affine=True, track_running_stats=True)
          (2): ReLU()
        )
      )
    )
    (branch4): Sequential(
      (0): MaxPool2d(kernel_size=3, stride=1, padding=1, dilation=1, ceil_mode=False)
      (1): BasicConv2d(
        (conv): Sequential(
          (0): Conv2d(832, 128, kernel_size=(1, 1), stride=(1, 1))
          (1): BatchNorm2d(128, eps=1e-05, momentum=0.1, affine=True, track_running_stats=True)
          (2): ReLU()
        )
      )
    )
  )
  (inception5b): Inception(
    (branch1): BasicConv2d(
      (conv): Sequential(
        (0): Conv2d(832, 384, kernel_size=(1, 1), stride=(1, 1))
        (1): BatchNorm2d(384, eps=1e-05, momentum=0.1, affine=True, track_running_stats=True)
        (2): ReLU()
      )
    )
    (branch2): Sequential(
      (0): BasicConv2d(
        (conv): Sequential(
          (0): Conv2d(832, 192, kernel_size=(1, 1), stride=(1, 1))
          (1): BatchNorm2d(192, eps=1e-05, momentum=0.1, affine=True, track_running_stats=True)
          (2): ReLU()
        )
      )
      (1): BasicConv2d(
        (conv): Sequential(
          (0): Conv2d(192, 384, kernel_size=(3, 3), stride=(1, 1), padding=(1, 1))
          (1): BatchNorm2d(384, eps=1e-05, momentum=0.1, affine=True, track_running_stats=True)
          (2): ReLU()
        )
      )
    )
    (branch3): Sequential(
      (0): BasicConv2d(
        (conv): Sequential(
          (0): Conv2d(832, 48, kernel_size=(1, 1), stride=(1, 1))
          (1): BatchNorm2d(48, eps=1e-05, momentum=0.1, affine=True, track_running_stats=True)
          (2): ReLU()
        )
      )
      (1): BasicConv2d(
        (conv): Sequential(
          (0): Conv2d(48, 128, kernel_size=(5, 5), stride=(1, 1), padding=(2, 2))
          (1): BatchNorm2d(128, eps=1e-05, momentum=0.1, affine=True, track_running_stats=True)
          (2): ReLU()
        )
      )
    )
    (branch4): Sequential(
      (0): MaxPool2d(kernel_size=3, stride=1, padding=1, dilation=1, ceil_mode=False)
      (1): BasicConv2d(
        (conv): Sequential(
          (0): Conv2d(832, 128, kernel_size=(1, 1), stride=(1, 1))
          (1): BatchNorm2d(128, eps=1e-05, momentum=0.1, affine=True, track_running_stats=True)
          (2): ReLU()
        )
      )
    )
  )
  (avgpool): AdaptiveAvgPool2d(output_size=(1, 1))
  (dropout): Dropout(p=0.4, inplace=False)
  (fc): Linear(in_features=1024, out_features=10, bias=True)
)
/opt/conda/lib/python3.7/site-packages/torch/storage.py:34: FutureWarning: pickle support for Storage will be removed in 1.5. Use `torch.save` instead
  warnings.warn("pickle support for Storage will be removed in 1.5. Use `torch.save` instead", FutureWarning)
Epoch [1] Loss: 1.7355  Epoch time : 47.9687
[Test set] Average loss: 0.0065, Accuracy: 4122/10000 (41.22%)
…
